src/saved_models/kdd_autoencoder_anomaly.pth (torch, 21682 bytes, 12 tensors)

encoder.0.weight f4 [32, 44]
00000000: 899e 78bd ff09 fdbe 935b 98bd c761 183d
00000010: 44b9 753d 9208 ddbd 3282 a881 76c3 a901
00000020: 37a7 6dbd b965 8e3e 4e12 92bc 5e5c d7be
00000030: 1161 d73c 370e 313e 7eac 0c00 ae28 bdbc
00000040: 80b0 353e 1836 843e c6ac 1dbe 50f0 9981
00000050: ab7f 8781 1340 d83e a5fa 673e b819 843d
00000060: 3475 4501 b602 6e00 bb97 813e 92fc 0abd
00000070: 83d6 99bd 4250 d23d 169c e93e 737a 6e3e
00000080: 37f3 d13d 96d7 92be 8d60 273c ba9b 8cbe
00000090: d332 5bbe f67b 2dbd f37b d23b f499 aa3e
000000a0: a27d 8cbe ebfd 023e 1cfb 9481 097d 7901
000000b0: b265 573f 0476 4a3d a16e 8dbe e815 163d
000000c0: f5f3 e0bd 56da 06bf e091 a701 22dd 8901
000000d0: 1224 133f 186f 523e 01b5 873e 5665 c33d
000000e0: 69fc b83e af78 1ebe 0f21 2681 7d84 eb3e
000000f0: 7691 9f3e cd95 393f 5f26 a33e 380c b101
00000100: bd74 db00 5f8c 21bd 6715 9ebe 9f36 7fbc
00000110: f823 0101 919c b101 fed5 4bbd 727c 16bd
00000120: ab16 0e3e 7f0e 5fbe 8ce8 3a3c 8a2a b2bd
00000130: af68 9dbe b2c9 80be 9cbd 143e 7630 d23c
00000140: f7c2 903e a28b 64be 13bc 913e 1a33 0e3d
00000150: a4a2 8f3e dbbd e03d 4d8f 6601 3c9c 8d00
00000160: 25f7 7fbe f369 b4be 83cb 473e 3a2e 563d
00000170: 9c05 793e 45b1 a8bd e44e ba80 3608 5901
00000180: e30a 843e a215 423e 9855 823d 9bdc 863d
00000190: 3c71 593e 1939 f6bd 05d2 5a00 8b6d af3e
000001a0: 1db1 b23e fd4c 1f3f 84ee 293e c8f3 7401
000001b0: 6412 0000 07ff 903e 60cc 8d3e 401f 2bbd
000001c0: 4084 2381 a055 b301 79f3 113e a217 55bd
000001d0: 0aff 83be 33a6 15be 7ac3 4c3e dd89 67be
000001e0: 2d09 e0bd bfa3 abbe bd53 403d d8b6 2dbd
000001f0: 642f 2b3f 2c34 eb3d 72e6 25bd 4374 913e
00000200: d157 143e 3e9b 7abd cba2 4f80 95a4 0381
00000210: 358f 8dbe b2e0 21be f121 713e 2e37 d93b
00000220: 3f69 e43d b63f 113e 9445 ae01 b8fd ae00
00000230: cab3 873e aa7d ef3e 13ca 723e ff38 903e
00000240: 3ae4 da3e 8365 7d3d 028f bd81 a9db 323e
00000250: 58b8 fc3e fb2e 063e d554 873e 2de1 9901
00000260: ec79 2881 b9a9 0e3e 6503 873e 2af1 a2bb
00000270: c8e2 0e00 c058 2f80 78b3 50be 409a d8bb
00000280: 9562 34be 2c9a 11bb 26d4 42bc 1b7f 903e
00000290: f632 22be aee9 97bd 1ba4 4dbe f103 e8bd
000002a0: af06 953e cf23 223d 9361 f03c b142 833d
000002b0: 17d3 333e 6a13 7dbe 79d2 5581 2cd5 8f01
000002c0: 6096 c9be 0e5e d3bd 534e 9b3e bcc6 babe
000002d0: 63f2 6a3f 29c2 c0be 60c8 a380 255f a500
000002e0: 2799 3c3d 5390 5f3e 4fd0 e23d 4721 bcbd
000002f0: 6e85 063e c8d8 93bd 9859 b001 6c94 793b
00000300: b61d ca3e 6122 f03e f9e8 c33d a786 f580
00000310: 8a66 0e00 0c09 0f3f f7ae 293e 2c06 f9bd
00000320: 5a0c 0101 928f 3081 94d2 e53e fc1a b03e
00000330: 9da0 51be cce4 39be 3974 55be d281 b43d
00000340: 8c3b d7bd 8cb1 dabd 8dd2 453e 6f8d 263d
00000350: 1679 0a3e 7c06 36be 90d9 7e3e 13e6 ae3e
00000360: 17d3 63be c271 84be 8804 4700 09c6 3980
00000370: 39ef 1e3f 62d8 2cbe 5971 553e 1c6e 26be
00000380: f6fa 823d 03d8 0fbe 5d82 a201 3f0d 2c80
00000390: ddcf 72bd 99cb 953c 63b2 f4bd f619 b03e
000003a0: 4465 d63e b7ce 903d 75d5 b501 be69 5b3e
000003b0: 61fc 03be 40d0 d93c 147a efbd 5cdc 0a01
000003c0: 7311 f200 fe4f c83e 3ebe 08bd e913 8d3d
000003d0: b85a 4100 aaaf 1881 82af 0f3e bf1a 073e
000003e0: 63b0 573e 688e 55be e664 1ebd 0538 9abe
000003f0: 1d54 a13e 03d5 c73e 8e17 14be c1bf 3b3e
-0.060698066 -0.4942169 -0.074393414 0.037202623 0.059991136 -0.1079265 -6.1900275e-38 6.236127e-38
-0.058020797 0.27811983 -0.017830994 -0.42062658 0.026291402 0.17290579 1.163904e-39 -0.023090687
0.1774311 0.2582252 -0.15397939 -5.6548155e-38 -4.977436e-38 0.42236385 0.22654207 0.06450218
3.6267275e-38 1.0102877e-38 0.25311074 -0.033932276 -0.07511618 0.10269214 0.45626897 0.23288898
0.10251468 -0.28680104 0.010215891 -0.2746256 -0.21406107 -0.042354546 0.0064234673 0.33320582
-0.274396 0.12792175 -5.472694e-38 4.5823785e-38 0.8413955 0.049428955 -0.27623466 0.036641985
-0.10984031 -0.52676904 6.155543e-38 5.064316e-38 0.57476914 0.20550191 0.26505283 0.09540813
0.36130074 -0.15475725 -3.0513103e-38 0.45999518 0.31165665 0.724942 0.31865212 6.5037064e-38
2.0153851e-38 -0.03944051 -0.30875704 -0.0155769875 2.3719364e-38 6.5244193e-38 -0.049764626 -0.036739774
0.13875835 -0.21782874 0.011407983 -0.0869952 -0.3074393 -0.2515388 0.14525455 0.025657874
0.28273746 -0.2231889 0.28463802 0.034716703 0.28053772 0.10973712 4.2347142e-38 1.3004851e-38
-0.24996622 -0.35237083 0.19511227 0.05229018 0.24318546 -0.082369365 -1.7109703e-38 3.9862496e-38
0.25789556 0.18953565 0.06363982 0.06585046 0.21234602 -0.12022609 8.340535e-39 0.34263262
0.34900752 0.6222685 0.16594893 4.4990627e-38 6.597e-42 0.2831957 0.27694988 -0.04177785
-3.0033256e-38 6.587708e-38 0.14253034 -0.05202449 -0.25780517 -0.14614181 0.19996443 -0.22611184
-0.1093925 -0.33523366 0.04695486 -0.0424107 0.6686919 0.1148456 -0.040502973 0.28409013
0.14486624 -0.061183207 -7.313403e-39 -2.4178982e-38 -0.2764832 -0.1580837 0.23548104 0.0066288924
0.111528866 0.1418446 6.4017345e-38 1.6070393e-38 0.26504356 0.46775562 0.23709898 0.28168485
0.42752248 0.061864387 -6.963284e-38 0.17466606 0.49359393 0.13103859 0.2643191 5.6526435e-38
-3.09442e-38 0.13931932 0.26369777 -0.0049725967 1.367051e-39 -4.348106e-39 -0.20380962 -0.006610185
-0.17615731 -0.0022217138 -0.0118914 0.28221974 -0.15839753 -0.07417618 -0.20082133 -0.11328877
0.29106662 0.03958493 0.029343402 0.06409205 0.17560993 -0.24714437 -3.9272928e-38 5.283579e-38
-0.3937254 -0.10320674 0.30333194 -0.36479747 0.917761 -0.37648132 -1.5041067e-38 1.5186988e-38
0.046044495 0.21832399 0.11074888 -0.09186035 0.13136837 -0.07219082 6.478075e-38 0.003808285
0.39475793 0.4690123 0.095659204 -2.2548001e-38 1.322481e-39 0.5587318 0.1657065 -0.1215938
2.370242e-38 -3.24291e-38 0.4488722 0.34395587 -0.20471425 -0.18153685 -0.20845117 0.08813824
-0.105094045 -0.10678396 0.193186 0.040662225 0.13522753 -0.17775911 0.24887681 0.34159908
-0.22248493 -0.2586804 6.521946e-39 -5.305665e-39 0.62083775 -0.16879418 0.2084402 -0.16252941
0.06395523 -0.14047246 5.9696464e-38 -4.045514e-39 -0.059280265 0.01828556 -0.11948087 0.34394807
0.41874135 0.07070678 6.6795195e-38 0.21427056 -0.12889244 0.02658856 -0.116932064 2.5504697e-38
2.223045e-38 0.3912353 -0.033384554 0.06888563 6.001851e-39 -2.8044024e-38 0.14031795 0.13193797
0.2106338 -0.20855105 -0.038670443 -0.30120865 0.31509486 0.39029703 -0.1446211 0.18334867

encoder.0.bias f4 [32]
00000000: 8216 8b3e 3b62 a43e b3e3 8e3e 8f41 93bd
00000010: 01ea a73e 8561 843e 6985 aa3e 89da b43d
00000020: e477 9e3e 5e0a 18bd f6b0 09be 5050 073f
00000030: 997a d93d bbde bb3c 6266 543e e2c3 c43e
00000040: 159d c63d d8e7 b23e 8be9 033f 4633 393e
00000050: b618 ddbc 7e53 103e 9cb6 293e 6557 4abe
00000060: 73bd 52be bb6b 4cbc c8da 893e 28c9 7a3e
00000070: 3479 d93d cea3 2e3e 1e6b 8b3e 30e2 143c
0.2716561 0.32106194 0.27908096 -0.07190239 0.32795718 0.25855651 0.3330491 0.08830745
0.30950844 -0.037119262 -0.13446411 0.5285692 0.10619087 0.022933355 0.20742181 0.38430697
0.0969793 0.34942508 0.51528233 0.18085966 -0.026989322 0.1409435 0.16573566 -0.19759901
-0.20580082 -0.012476857 0.2692473 0.24490798 0.10618821 0.17054674 0.2723016 0.00908713

encoder.2.weight f4 [16, 32]
00000000: 0a10 7d3e 8b0c babe 8c09 8f3d 28d9 c9be
00000010: 1559 d63d 7a39 093f 6bce 303e a128 17be
00000020: 4ae5 a33e 558e 1b3e 5add 023f 5569 443f
00000030: c38b 4abe 8ded 223e 0fb1 043e 465f bb3e
00000040: 7bf7 ab3e 6718 16be 461a 50be dbb1 b03e
00000050: 1d0d df3e 1928 d8bc 44aa fdbd 45d1 a33e
00000060: 7303 813e bdd5 1dbf 7518 08be c5e6 713e
00000070: 44b7 b4bc 3980 b6be 2070 003f 599e 913e
00000080: 742c d13d 6242 c53e be4a 273f 7508 b73e
00000090: a674 78bd 3c55 9c3e 92d1 b03e d09c d93e
000000a0: 27db dd3d d8ab fa3e 1c06 1b3f 9e20 cc3e
000000b0: 9db4 4abe 403a a53d 1126 2a3f be40 ce3e
000000c0: 4c4f 273e 163d 093f 7f38 823e a926 37be
000000d0: 4241 9a3e dade fcbe c905 943e da3f 1c3d
000000e0: a6f9 a0bd 3252 ea3e 3895 0f3d 4125 8e3e
000000f0: 1cf9 2abe 6a5a ed3e d0d8 0ebe d1be 5f3e
00000100: 7680 46bd a130 ff3e a8e8 4f3e 946d c43b
00000110: b6e2 a53d efcf b43e 8664 c2be d83b 673e
00000120: 7a2e 223f 9291 b3bd 08bb ad3c 0961 eb3e
00000130: fb4c b53e d6c8 033d b39f 353e 2557 463e
00000140: 9fc1 ea3e d6b2 34bd 8353 d03e 2622 a7be
00000150: 293b 0c3e 153d 9abe d96b 8bbd d200 223e
00000160: 7dd3 353d 6bd7 bfbe d6fa d03d dfc4 1e3f
00000170: 6c56 fb3e 86c6 913d 91aa 14be 841c 0ebe
00000180: 6a0b 0dbe 09a4 133e 91f2 ab3c 397a e13d
00000190: 8885 8aba e96b 933e 3ee7 33be 0b24 ecbd
000001a0: bb0e b93e b69f 15bd a521 de3d e915 fe3e
000001b0: ac3a 933e 6cb1 c93e 8562 903e 257c ad3e
000001c0: 4369 173f c696 25bd 1cd4 aa3e 510b 33bd
000001d0: 2ae7 cc3d 5bb3 26be 5e7f 8c3d 4c1f a63e
000001e0: 39f0 fa3d fc02 e1be 46af f93d a633 0d3f
000001f0: a291 de3e 88ed f1bc 57de 90be 533f 69be
00000200: fc16 0d3f 75fd a73d 5f2c bd3e 7b77 0dbe
00000210: dfda 2b3f 66d7 833e fd78 b93e c6e2 61be
00000220: fdcf 0fbf c5a6 453e becc a7bc 5fac 8d3e
00000230: 7782 fbbe 03c0 693f 2e40 133e 2674 c53d
00000240: 9102 4e3d ebba 3fbe e89f 3cbe bd27 58be
00000250: 41cb b7bd f2b0 353e 1068 29be 577b c63d
00000260: 5be0 9fbe b9e7 a63e 51f6 913e 7c1f 5cbf
00000270: 6a64 98bd bd07 8abe 20a5 913e c3df 063f
00000280: d8f9 043f 51c5 5c3e c03f 343e de1e f1bc
00000290: c82d fc3e aa5e 83be f61f b13d dd48 a7bb
000002a0: c8ff 9b3e c706 113f b6bc e33e d1dd bc3d
000002b0: d362 583e 0a70 0dbe 7342 8bbe 28fb f93d
000002c0: c380 f8be 8e01 623e d6c5 2c3f e6b1 3c3e
000002d0: e42a de3e e1a4 18be 89a3 b33e 737e 44bf
000002e0: 4c86 e9be a588 cfbd 85d0 43be 0f0a 4a3e
000002f0: fd4e 413e bf4f d83e e103 5e3e 3922 be3e
00000300: 25ae fabd 2070 03be 88ee 5b3d 0519 443e
00000310: 680b c7bc e2a7 debe 6c74 883d e9c3 0cbe
00000320: 37d6 ac3e c690 b8be efdc df3e 388a 023f
00000330: bb4e 59be 02bf 873d 7527 ea3c da1b 003e
00000340: 0246 d93c a7b4 09be ba9e 34be 4d28 af3c
00000350: 7a05 afbe 3418 8fbd 8ec3 813e 8cda c33e
00000360: e490 9f3c 9d8b d2bd 6e85 9b3e ae5f b73e
00000370: 9915 a03e f2de 623e 43cc b6be 0610 cabc
00000380: 67ae 033f 43fd 1c3f fe60 b83e 6343 ff3d
00000390: 5446 be3e afc5 5f3e 63b9 1f3f a6dd 443e
000003a0: 0d5c 073f f39a a13e 89f2 bb3d 4c6e 523e
000003b0: 73e1 ee3d e237 12bf 0007 bcbc fd20 6e3e
000003c0: d159 b5be a776 8cbd 05c5 8e3d d561 183e
000003d0: a29e 2e3f e948 d33c 623b b43e d3db d7bd
000003e0: 9c12 a4be 76f9 7dbb f141 853d ed0e 873e
000003f0: 3669 383f 293c 5b3e 292c c8be c590 0c3f
0.2471315 -0.36337695 0.06984243 -0.3942349 0.1046621 0.5360333 0.17266242 -0.14761592
0.3201087 0.15191014 0.51119006 0.76723224 -0.19779877 0.15910931 0.12958167 0.36596125
0.3358725 -0.14657746 -0.20322523 0.34510693 0.43564692 -0.026386308 -0.12385991 0.31995597
0.25197944 -0.61654264 -0.1329058 0.23623188 -0.022060044 -0.356447 0.5017109 0.28441122
0.10213557 0.3852721 0.6534842 0.3574864 -0.06065812 0.3053378 0.3453489 0.4250245
0.108328156 0.4895923 0.605562 0.39868635 -0.19795461 0.08067751 0.66464335 0.4028377
0.16338843 0.53608835 0.25433728 -0.17885841 0.30127913 -0.49388772 0.28910664 0.03814683
-0.07860117 0.45765835 0.035054415 0.27762797 -0.1669659 0.46358043 -0.13949895 0.21850134
-0.048462354 0.49841788 0.20303595 0.005994508 0.08099882 0.3531489 -0.37967318 0.22581422
0.6335217 -0.08768 0.021207348 0.4597247 0.35410294 0.032173954 0.17736702 0.1936918
0.45850846 -0.044115864 0.40688714 -0.3264324 0.13694443 -0.30124727 -0.0680768 0.15820625
0.044391144 -0.37469038 0.10204093 0.6201915 0.49089372 0.071179435 -0.14518191 -0.13878065
-0.13773885 0.14418043 0.020989688 0.1100964 -0.001056836 0.28793266 -0.1756868 -0.11530312
0.3614405 -0.036529265 0.10846261 0.4962609 0.287557 0.39393175 0.28200164 0.33883777
0.5914499 -0.040426992 0.33364952 -0.043711964 0.100050285 -0.16279356 0.06860231 0.32445753
0.1225285 -0.4394759 0.12191634 0.55156934 0.43470484 -0.029532209 -0.28294632 -0.22778063
0.55113196 0.0820264 0.36947915 -0.1381511 0.67130846 0.25750273 0.3622512 -0.22059163
-0.5617674 0.19301899 -0.02048337 0.2767057 -0.49122974 0.9130861 0.14379951 0.09641294
0.050295416 -0.18723647 -0.18420374 -0.21108909 -0.089743145 0.1774328 -0.16543603 0.09691494
-0.31225857 0.32598665 0.28508237 -0.8598554 -0.074410275 -0.2695903 0.28446293 0.52685183
0.5194373 0.21559645 0.17602444 -0.029433664 0.49253678 -0.2565816 0.08648674 -0.0051051215
0.30468583 0.56650966 0.44479913 0.092219956 0.21131448 -0.13812271 -0.27199134 0.122061074
-0.48535737 0.22070906 0.67489374 0.18427238 0.43392098 -0.14906646 0.35085705 -0.76755446
-0.45610273 -0.10133485 -0.19122513 0.197304 0.18877788 0.4224834 0.21681167 0.37135485
-0.12240247 -0.12835741 0.053694278 0.19150169 -0.024297431 -0.4348746 0.06662831 -0.13746609
0.33757183 -0.36047953 0.43723246 0.50992155 -0.2122144 0.06628229 0.028583268 0.12510625
0.02652264 -0.1344782 -0.17638674 0.021381522 -0.34183866 -0.06987038 0.2534451 0.38252676
0.019478269 -0.10280535 0.30375236 0.35815185 0.31266478 0.2215536 -0.35702714 -0.024665844
0.5143799 0.61323947 0.360115 0.12464025 0.3716303 0.21852754 0.6239225 0.19225177
0.52874833 0.3156353 0.09177119 0.20549887 0.11664095 -0.5711652 -0.022952557 0.23254772
-0.35420087 -0.06858569 0.06971172 0.1488107 0.68210804 0.025791602 0.35201555 -0.10539975
-0.32045448 -0.0038753427 0.06506718 0.26378575 0.7203554 0.21409668 -0.39096192 0.549084

encoder.2.bias f4 [16]
00000000: ad90 0abe 1a4a 0d3e 54b6 9e3e 8de6 bcbd
00000010: 35a0 b33c 0f98 5a3d e52e 4fbd c296 08be
00000020: d135 903c be74 803d dbbb aa3d 33d9 a53d
00000030: 884a ae3d 96db 6cbd 0b92 083e e139 4d3d
-0.13531752 0.13797799 0.3099848 -0.092236616 0.021926979 0.05336767 -0.05058183 -0.1333876
0.017603787 0.06272267 0.08336612 0.08098068 0.085103095 -0.0578266 0.13336961 0.050104026

encoder.4.weight f4 [8, 16]
00000000: f9fd 1f3f e6f7 183e a8ef 0f3f 05fc da3e
00000010: 218e 1a3f b74c 613f b010 e13e 42fa 253f
00000020: d5b8 09bf 30a1 873e cc7f fc3e 29d6 d8be
00000030: ce7a b83d 2bf2 82be f64d 4bbe ba5f 553f
00000040: e1cd 93bd a2a4 ad3e 2d6a 1f3f 9b54 d43e
00000050: 62d2 c1bd a70b 3dbe c64d b73e a8ac fa3e
00000060: 6f6f 1b3f 9e9c 203f fe25 f03e 0cc0 193f
00000070: 0404 003f 43af c53d f539 f03e af05 e5be
00000080: 4dee 483f 3f22 8d3d 81bc acbd ec76 4a3e
00000090: 6ab9 173e d87a 3ebe c53f 6ebc 109f a5be
000000a0: d0ce 743e 5383 f53e b658 a93e 93ef 133f
000000b0: a6df 0b3f 020d e1be 36e8 14be fda9 8c3e
000000c0: 75bd cabe 00b3 f83d 3e77 44be 817e 99be
000000d0: d75f 873f 6ef4 3b3f b74c 40bf ce19 0c3f
000000e0: 43f0 873e b183 8e3d 6098 67ba e9e2 9e3e
000000f0: ecbf 253f f184 993e 345d d83d 49f0 60bc
00000100: a96b 96bd b696 133f 35ef 29be d598 93be
00000110: 702c 11bf 77d6 123e e791 d73e 126f b83e
00000120: 3016 213e 8627 883e 0f14 aebe 35f1 4bbe
00000130: c30e 003f 8449 49bf 1544 2a3f cab7 d73e
00000140: 8dc9 e0be 6003 1e3f 8298 2a3e b171 b53d
00000150: 0541 a3be 981d be3e ba63 93be 7559 c1bd
00000160: 5ba1 0c3f 93e9 e6bd f24b f9be 568d 18be
00000170: dd16 c43e 1d29 ee3e 33a8 d0bd 7a86 433f
00000180: 498a 003f fef2 c83e 01ef e8be 97a7 a1be
00000190: 421e 283f 697d 1e3e b0c4 3fbe d5df b33e
000001a0: e23a e53e d8cc b0be 98f8 7f3e bd1c 953e
000001b0: 0090 98be c2ca 03bf c4f8 a6bd 6c79 c63d
000001c0: 7b14 c13e 4a56 2e3f 36e8 053f 2b5d 0c3f
000001d0: 0ff4 7f3e 3a7f a0be 5d30 313f 486d 85bc
000001e0: 58c3 8a3e 3b7a c3be 57ab 96be 7476 a9be
000001f0: 4850 d8be 1b26 5e3f e24d 6e3f 5b97 b73e
0.62496907 0.14938316 0.5622506 0.427704 0.6037312 0.8800768 0.43958044 0.6483499
-0.53797656 0.26490164 0.4931625 -0.4235089 0.09007798 -0.25575384 -0.19853958 0.8334919
-0.07217003 0.33914667 0.62271386 0.414708 -0.094639555 -0.18461476 0.35801524 0.4895985
0.6071691 0.6273898 0.46903986 0.60058665 0.5000613 0.09652569 0.46919218 -0.447309
0.7848862 0.068912975 -0.08434392 0.19771928 0.14816824 -0.18601549 -0.014541571 -0.32347918
0.23907018 0.47951755 0.33075494 0.57787436 0.54638135 -0.43955237 -0.14541706 0.2747344
-0.3959767 0.121435165 -0.19186112 -0.29979327 1.0576123 0.73419845 -0.7511706 0.54726875
0.26550493 0.06958712 -0.00088346563 0.31032494 0.64745975 0.2998424 0.10564652 -0.013729163
-0.07344753 0.5765184 -0.16595156 -0.2882754 -0.5670843 0.14339624 0.42103502 0.3602224
0.1573112 0.26592654 -0.33999678 -0.19916232 0.50022525 -0.786278 0.66510135 0.42132407
-0.4390377 0.617239 0.1665974 0.088595755 -0.31885543 0.37131953 -0.28787023 -0.09440891
0.5493371 -0.112750195 -0.48690754 -0.14897665 0.38298693 0.46515742 -0.101883315 0.7637707
0.50211006 0.39247888 -0.45494846 -0.31573173 0.6567117 0.15477528 -0.18727374 0.35131708
0.44771487 -0.34531283 0.24997175 0.29123488 -0.29797363 -0.5148126 -0.08152917 0.09691128
0.37710938 0.68100417 0.5230745 0.54829663 0.24995445 -0.31347066 0.6921442 -0.01628746
0.2710216 -0.38179192 -0.29427597 -0.33098185 -0.4224875 0.86776894 0.9308759 0.35857663

encoder.4.bias f4 [8]
00000000: ffd4 763d 3583 b5bd 358e 863e f444 cabd
00000010: 7656 febd 05d6 483e 3386 283d 58c2 663e
0.060261723 -0.088629164 0.2628037 -0.09876433 -0.12418835 0.19612892 0.041143607 0.22535074

decoder.0.weight f4 [16, 8]
00000000: 2718 16bf 5d9b 133f 9d9a 383e 5a4c c23e
00000010: 0212 c13d e86a 173f ac3b 17bf 90a3 413d
00000020: bcf6 f03e 0deb cbbd 8462 de3d fcbd cbbc
00000030: 06f4 233f 06af 85bd 7802 82bc 13a4 b23d
00000040: 1680 203f aec0 c5be 455b 01bf db9a 253e
00000050: 44e9 75be 1aec ce3e 715b f03e 090b 733e
00000060: f312 f43e 7e9c 3c3e c9a2 073e 64c9 ea3e
00000070: 8ad0 dd3d 9ec4 c43e 8006 06bf 3db2 3abe
00000080: 55e0 dcbd a6c7 0f3f f704 c73d afe9 95be
00000090: 7db5 ab3e 0946 173e 00a6 23bf cbfb 023f
000000a0: b2d4 ae3d 4472 023f 8e23 7b3e e4bf 46be
000000b0: d2df ecbe 17ee 4bbf 5605 323d 8b58 633e
000000c0: b243 243f 214a b7bd 2177 c93e e5fa 19be
000000d0: d5cb 59be 6689 a2bb 7df5 ddbe ea4d 0ebf
000000e0: a4bf 9581 4e04 1a81 fb64 a581 a66d a181
000000f0: d4c7 b281 dcfe c181 447c f281 acae b081
00000100: 8b1c 543e 2650 f1bb 2fca da3c d4f7 59bf
00000110: 6d00 bdbd a67b ce3e fa7d 5dbf 43e0 053f
00000120: bc35 a5be e195 0f3e 6ca9 1ebd 3aa4 f73e
00000130: 3c8d 8a3e 0ccb 18bc ce3f 8e3e 2578 14bf
00000140: a37a c880 4ea1 b800 e011 4281 7b60 8481
00000150: 10fa 8e81 21d5 a581 93e8 ad81 c0d0 8a81
00000160: b9d6 00bf 9660 90bd 9f48 41be a5dc fabe
00000170: 62db d03e 8db8 8a3e a62c 86be faca 603f
00000180: 9b71 a53d 7011 773d f36e c0be de9e 773e
00000190: de58 1c3f 3dbd 0c3f 779e 133f e7a3 82bd
000001a0: 621b 82bb d000 fd3e debc a23e ddd9 e83e
000001b0: d964 81bd 3da4 f2be b445 2e3f c63c 37be
000001c0: 79d7 1c3f 839b ac3e ece9 05bf 7e83 423e
000001d0: 4b59 433e 1f89 febe 2046 23bf b05e a4bd
000001e0: 050d 16bf 814a c8bd ed70 6abe 30d9 973e
000001f0: 5080 41be f079 c63e cd60 cf3e 4dc1 003f
-0.58630604 0.5765894 0.1802773 0.37948877 0.09427263 0.591475 -0.5907543 0.047275126
0.47063243 -0.09956942 0.10858634 -0.024870865 0.64044225 -0.06527524 -0.015870318 0.08722701
0.62695444 -0.38623565 -0.5052989 0.16172354 -0.24014765 0.40414506 0.46944764 0.23734678
0.47670707 0.18419072 0.13245691 0.45856774 0.10830791 0.38431257 -0.5235367 -0.18232055
-0.107849754 0.56164014 0.09717744 -0.2927985 0.33536902 0.1477281 -0.6392517 0.51165456
0.08536662 0.50955606 0.24525282 -0.19409138 -0.4626451 -0.7966017 0.04346212 0.22201745
0.64165795 -0.08949686 0.393487 -0.15037115 -0.21269162 -0.004960227 -0.43351355 -0.5558764
-5.5008947e-38 -2.828842e-38 -6.075633e-38 -5.92994e-38 -6.567361e-38 -7.126271e-38 -8.907507e-38 -6.490283e-38
0.20714013 -0.0073642908 0.026707737 -0.8514378 -0.09228597 0.4032871 -0.8652035 0.5229532
-0.3226756 0.14022018 -0.038735792 0.48367482 0.27060878 -0.009325754 0.27783054 -0.57995826
-1.8411093e-38 1.6955597e-38 -3.5644997e-38 -4.8627585e-38 -5.2521384e-38 -6.091725e-38 -6.388389e-38 -5.0992735e-38
-0.5032764 -0.07049672 -0.18875359 -0.48996463 0.40792376 0.27093926 -0.2620594 0.8780972
0.08078309 0.060319364 -0.37584648 0.24181697 0.610731 0.54976255 0.57663673 -0.06378918
-0.0039705494 0.49414682 0.3178472 0.45478716 -0.06318063 -0.4739093 0.6807511 -0.17894277
0.61266285 0.33712396 -0.5231006 0.18995473 0.19077031 -0.4971399 -0.6377888 -0.08025873
-0.58613616 -0.097798355 -0.2289464 0.29657888 -0.18896604 0.38764906 0.4050354 0.50294954

decoder.0.bias f4 [16]
00000000: dfba 93be 8d97 bcbe 10ef 1c3e bd5a c33c
00000010: 0792 6abd 0511 ce3e 745d 88bd c892 8d00
00000020: 6911 863d 24cb 623d 51f8 2a00 88d0 853e
00000030: 908e 6c3e f439 413a 539b 4cbe 50e1 b0be
-0.2885351 -0.36834374 0.1532557 0.023846978 -0.05726817 0.4024736 -0.0665845 1.300146e-38
0.065462895 0.05536951 3.94617e-39 0.2613566 0.23101258 0.00073710014 -0.19981126 -0.345469

decoder.2.weight f4 [32, 16]
00000000: c3bf ec82 4eb2 2082 f349 7882 3c09 e182
00000010: 454b f082 1454 3982 0caf 1801 78b5 e400
00000020: ecde e900 6657 7382 c4af 3980 ba6d ae00
00000030: d3c9 0083 ee43 dc82 f920 6082 3802 cd00
00000040: e79a cc3d 4958 a93e 046a 6d3e 97a8 853e
00000050: e857 3a3e 3a33 1cbd fe2e bf3b b4e2 cc01
00000060: 1f96 f6be 359b bcbe 5f04 dd80 64c1 5fbe
00000070: e5da 123e f32d 1abe 5a68 df3e 56e9 16bd
00000080: d24c 4d3e 5ec1 ab3e 1f29 c2bd 25d0 013e
00000090: 6c24 713d 4af8 723e 18ea c9be 7ef0 2d01
000000a0: f0b0 80be efa6 b2be 2fda 0b80 d49d 49be
000000b0: 0b0b 8b3e 141f 7dbe 7cea 24bd 51e8 8e3e
000000c0: 7a33 db3e fb28 97be 73f5 113e 475f 54bd
000000d0: 1ab7 063f 7c90 063f b20d f4be a100 6881
000000e0: d560 0bbe 62b3 86be 7056 5801 3bf1 b038
000000f0: d7e8 16bd a3bf 92be 0db5 fa3d 7dc3 3d3d
00000100: 867c fc3e 87e3 6a3b a89e ddbe 7fc3 3c3e
00000110: 8d4d 0c3e 26d1 afbe efdb 1bbe 7e47 0182
00000120: 2af2 8dbe 6bc7 1a3e 7ee4 7301 d3cf 10be
00000130: 3439 523d 7fb8 6f3d bfb8 3bbe 4b44 21bf
00000140: 6a49 d53d a10f e23d 5e33 47be f5c8 bb3d
00000150: b686 263e 76f3 3fbd 7c8e 99be 7af7 0b01
00000160: 57e1 f7bd 8cfe 473e 207e 0582 0d49 82bc
00000170: f411 6abd 4b62 643e ce86 80bc da0d e73e
00000180: 920b 99bd 5835 3fbd 83a9 35be cade ba3e
00000190: 335b 30bd 4ec3 d23e 41af bb3e b771 3e80
000001a0: 1f1a 3c3e 9f33 003f f63d 7e81 fe57 e33d
000001b0: a378 36bd 7b47 5cbe 0fe9 bf3e c0c6 08be
000001c0: c369 5ebe c6e7 00be bb1b a43e aa04 793e
000001d0: d85c 5a3e 4ee4 2bbe 84e3 06be 3ad4 a581
000001e0: adff aa3e 40b2 e23e 6665 b081 54d0 ae3d
000001f0: e390 8c3e 5fda efbc 511d 1fbe 80f2 debe
00000200: 8229 ddbd 9bca a53e cb81 c2bd 937e b53e
00000210: 01c6 893d 497d 19be 8e89 ebbd b5a9 bb01
00000220: 2ac4 e73d 619b e1bc ba76 a881 f715 96be
00000230: de5c 10be 6094 5e3d a650 a33e 7bc2 0b3e
00000240: 86bb 88bd 0cb0 a73e ddd8 50be 4ced 1b3e
00000250: 58b9 c7bd b2b5 7dbd 1d12 7c3d 509e 8481
00000260: 4b96 8abe 5157 6bbe 016b 3c81 9a73 8d3e
00000270: 50cd a5bd 167c 003f 9000 c53e 08ef c7be
00000280: 2586 7abf 507e ac3d b6bf 343d 9d4c 69bc
00000290: 010c 4a3d 437f 233f 1ac9 fc3d dda0 3100
000002a0: c1be 05bf ba33 92be 4028 b681 c76e 8abd
000002b0: a56c 233b 674a 863e 8d1c 04bd 351a 28be
000002c0: 3d5a 0dbf 1e3a 913e a736 1f3e 4b56 563e
000002d0: 7374 d4be 4e1a 5abd 601d 803e c61c 8981
000002e0: 9781 a73e bf0f d63e 7817 5801 7e06 043f
000002f0: 18df 3f3e 2dfe 41bc c6c1 d93d bc8a dcbe
00000300: 80c9 e8bc a986 b9bd 3381 3e3e 8374 7e3e
00000310: b425 c93e d308 233e f12e 163e 2ac6 b681
00000320: 91d8 72be 2a9a cdbd b622 a681 28a5 36bf
00000330: cfb0 d1bd bec4 80be f6f4 b53e c649 013f
00000340: 0688 303e 351e a4be fa33 9b3d 7c80 223d
00000350: 7d6e 86be 8c97 473e 20ef 81be 1728 0081
00000360: 0d02 c3be 0b2f fcbd 681d b101 ae29 833e
00000370: 3f36 a2bd 2a26 023f 57dc dcbd 2b30 2a3f
00000380: aeea 5b3e 68e9 163d 3438 823d ae9c aa3e
00000390: 824c 3ebd 3d19 a53e 85cc 16be 8922 b281
000003a0: 717f 083e 2952 c0bd 13c2 b681 d46f 1c3f
000003b0: e3e9 d0be b450 0f3d deb6 cfbe 8722 b0be
000003c0: 107a 3c3e f07e 00be 2033 c03e 708b 02be
000003d0: 5769 bdbe 6a84 d73e 20f0 56bf 52e7 9f01
000003e0: 5c1a 86be 97a0 e33e 0a04 aa01 7f76 9a3e
000003f0: 6a75 c73e bf4e aebc bb9e 27be 8d55 3cbe
-3.478715e-37 -1.1806114e-37 -1.8241385e-37 -3.306608e-37 -3.5308033e-37 -1.3615783e-37 2.804358e-38 2.1003592e-38
2.147764e-38 -1.7877903e-37 -5.297676e-39 1.6018739e-38 -3.78475e-37 -3.2365084e-37 -1.6466384e-37 1.8827073e-38
0.09990483 0.3307517 0.23184973 0.26105186 0.18197596 -0.03813479 0.0058344593 7.526307e-38
-0.48161408 -0.36837164 -2.0297213e-38 -0.21851116 0.14341314 -0.1505659 0.436343 -0.03684362
0.20048836 0.33545965 -0.094804995 0.12677057 0.058872625 0.23727527 -0.39436412 3.1947626e-38
-0.25134993 -0.34892985 -1.08846e-39 -0.19689113 0.27156863 -0.24718887 -0.040262684 0.27911618
0.4281271 -0.29523453 0.14253788 -0.051848676 0.5262314 0.52564216 -0.476667 -4.2612121e-38
-0.13611157 -0.26308733 3.973495e-38 8.437267e-05 -0.036843147 -0.28661832 0.12241564 0.04632901
0.49313754 0.0035841183 -0.43285108 0.18433951 0.13701458 -0.34339255 -0.15220617 -9.49794e-38
-0.2772382 0.15115134 4.4795986e-38 -0.14141779 0.051324084 0.05852556 -0.18332194 -0.6299483
0.10414393 0.11038137 -0.19453189 0.09169189 0.16262326 -0.04686304 -0.2999152 2.5707824e-38
-0.12103527 0.19530696 -9.807493e-38 -0.015903974 -0.057146028 0.22303121 -0.01568928 0.45127755
-0.0747291 -0.046681732 -0.17740445 0.364981 -0.043055724 0.4116463 0.36657146 -5.734594e-39
0.1836934 0.5007877 -4.6696887e-38 0.111007676 -0.044548642 -0.21511643 0.37482497 -0.13357067
-0.21720032 -0.12588415 0.32052407 0.24318185 0.2132448 -0.1678631 -0.13172728 -6.091596e-38
0.3339819 0.4427662 -6.479769e-38 0.08535829 0.2745429 -0.029278932 -0.15538527 -0.43544388
-0.107989326 0.32381138 -0.09497412 0.3544813 0.067272194 -0.14989199 -0.11500846 6.893647e-38
0.11316712 -0.02753991 -6.188382e-38 -0.29313633 -0.14097926 0.05434072 0.31897467 0.13648407
-0.06676392 0.327515 -0.20395227 0.1522724 -0.097521484 -0.061940856 0.06154071 -4.871631e-38
-0.2706779 -0.22982527 -3.4606918e-38 0.2762726 -0.08095801 0.5018934 0.38476992 -0.39049554
-0.9786094 0.0842253 0.044128142 -0.014239457 0.049327854 0.6386606 0.123430446 4.557646e-39
-0.5224419 -0.2855509 -6.6913997e-38 -0.0675941 0.0024936583 0.2622864 -0.03225379 -0.16416247
-0.5521582 0.28364652 0.15548192 0.20931356 -0.41495094 -0.053247742 0.2502241 -5.036714e-38
0.32716057 0.41808888 3.9689772e-38 0.51572406 0.18737447 -0.011840385 0.106326625 -0.43074596
-0.028416395 -0.090588875 0.18603973 0.24849133 0.39286578 0.15921335 0.14666344 -6.714059e-38
-0.23715426 -0.1003917 -6.102858e-38 -0.7134576 -0.10238802 -0.25150102 0.35538453 0.50503194
0.17239389 -0.32054296 0.07578273 0.039673313 -0.2625617 0.19491404 -0.2537775 -2.353865e-38
-0.38087502 -0.1231366 6.5061727e-38 0.25617737 -0.07920503 0.50839484 -0.10784214 0.6647975
0.21476242 0.036843687 0.06358376 0.33322662 -0.046459682 0.32245818 -0.14726456 -6.543643e-38
0.13329865 -0.09390671 -6.7134724e-38 0.61108136 -0.4080344 0.034989074 -0.40569204 -0.34401342
0.18405938 -0.12548423 0.37539005 -0.12748504 -0.3699443 0.4209321 -0.8396015 5.8739304e-38
-0.26191986 0.44458458 6.2453933e-38 0.3016853 0.38956767 -0.021277783 -0.16369145 -0.1839201

decoder.2.bias f4 [32]
00000000: 8ce6 1f82 7b8a 14bd 4868 adbe ca7b c2bd
00000010: aa7d a43e bdb1 50bd 045d f73c 9762 a73e
00000020: 6750 0a3e 0c6c bfbe db9c 9d3e cb5f 9e3e
00000030: 5d21 52be 24d9 1d3f ed80 d63d 2e00 523c
00000040: 23fd 4d3e ecb7 fbbd 8c62 1c3e 2ce8 89bd
00000050: 72a6 853e 58b3 d53e 7181 9f3e 94a2 05be
00000060: d249 07bf 4acd 343e 200a 8101 b06f b5bd
00000070: 79c8 373e cc6f 193d 4254 c2be 604f 8f3d
-1.1747639e-37 -0.036264878 -0.33868623 -0.09496267 0.32127124 -0.050950754 0.03019572 0.32692406
0.13507234 -0.3738712 0.30783734 0.3093246 -0.2052054 0.61659455 0.104738094 0.012817426
0.20116095 -0.1229094 0.15271968 -0.067337364 0.2610355 0.4173839 0.31153443 -0.130503
-0.52847016 0.17656437 4.7401645e-38 -0.08859193 0.17947568 0.037460133 -0.3795491 0.069975615

decoder.4.weight f4 [44, 32]
00000000: 933a 2300 7097 9a3c 24e3 13bc 90cc 233e
00000010: bdcb abbd 4fe5 893c 9d47 67bd c19c b5bd
00000020: dca5 3abc 999e 9abc 4112 ccbd b758 64bb
00000030: 3668 253d 0c32 08be 5ff5 8bbe f11d b53d
00000040: 3cf9 523b 95ef e23d 369c e23d 9a03 9e3d
00000050: 4299 193d 9ce7 c73d cad8 1bbe 875a f03d
00000060: 778f 12bd f7c8 83bd defa 0a01 ceea 193d
00000070: 4a76 a33d 1b0a babc e742 af3d 26f1 7bbd
00000080: 364c a581 6b78 3abd d700 723e 9145 613f
00000090: 9e13 91bf 7d22 7e3e b705 533e 40e9 94bd
000000a0: 6983 16be 0f81 4d3e 94b1 f4be 5700 bfbe
000000b0: 51b5 013e 4d2e 69be 1cb3 65bd 2540 633e
000000c0: d07c fd3d d3c9 6f3e e051 983c 9fcb ffbe
000000d0: 459a f43d 5d7c 6bbe 12e2 10be 6c0a 8f3e
000000e0: cb64 08bf ecef 893e 4f25 0800 685d be3e
000000f0: ea57 a3be 1cdc ee3c 5eab 573d 73cd 4abd
00000100: a446 3181 04fd cb3b 96a7 963d 4b4e 49bd
00000110: 9651 c53f c246 3e3e 58ed 873e f8b0 59be
00000120: b441 95bd d890 82bc 16fa 53bf d6d2 5fbe
00000130: 4d77 853d 667e 073d 7b0d ec3c accd 653f
00000140: 9629 723c 4524 e13d 99dc bf3e 3b60 0dbf
00000150: c582 30be 7248 fa3e 72a7 67be 335c babe
00000160: 0b04 203f 6833 03bf cdb0 5c81 d6d1 f6bc
00000170: ff67 af3e 2af6 d2be d6b0 213e 683b 6cbf
00000180: 193b 7302 79e3 813d e82d 7d3c 2473 9fbc
00000190: 9d03 993c a8b9 6e3d 436c 2e3d d87f 2e3d
000001a0: 3c4e c7bd 3c57 eebc a4ef a5bb d134 e03c
000001b0: 488c 153c 9134 343d 8ea6 233d 91bc e5bb
000001c0: 7ff8 b4bc 286f b9bc 9af7 5cbd fd9c 1f3b
000001d0: 435b 4a3c f59c 363d 4820 1fbc e493 ad3b
000001e0: 0d21 8a3b bc1a c2bc b432 2481 eb2a ee3b
000001f0: 73ad 77bd 47e7 a43b 332c 98bc 498e 16bd
00000200: 62c7 dc00 9a7d 48be b41c be3e b98f a9bc
00000210: 9db6 a33c e900 ddbd 88d2 633d 2bb7 2d3e
00000220: 22be 66be 9d42 56bd b2f3 21bd 3f57 093d
00000230: 807f 7d3e b1a9 133e fdf1 463d bd24 42be
00000240: 5631 c7bd 67e0 5abd 8d63 173d 259f 31bd
00000250: 71ce aa3c 442c 213d 0949 483d 4d01 293d
00000260: cc19 f2bd c9ff 863b 1f06 9f00 a1c9 6bbd
00000270: 16e4 453d 72e2 28be a84c 733e 999f a6bd
00000280: b5e9 5282 ed7d 12bd c65b bbbe d3e5 c93e
00000290: 9345 0cbd ea05 f73c ee14 2fbd 1e7f 26bc
000002a0: d5e9 90be 7933 8c3d cab7 ec3c af40 183d
000002b0: 529d 5a3e b623 09be 06a1 5abf 1ce6 c83e
000002c0: 9161 1e3d a845 313e d155 e6bc 6af3 71be
000002d0: f9c0 8dbe 9e78 173f 25f9 15bd f092 a2be
000002e0: ca64 e13d 1400 403d 32f8 2200 c5b4 c23e
000002f0: 7912 c23d 4b20 f13d 7a45 8cbc 5a1f a03d
00000300: 3707 2e81 3dc0 80bb d6b9 c23a e26b 59ba
00000310: 0851 a239 8931 9d3a 7874 53bc 07de 22bc
00000320: 6c61 b6bc 61b3 c7bb 222e 3abb 694c f63a
00000330: 0159 a73b 4479 74bb de0f 0d3b a129 e2b8
00000340: 6055 323c 5285 3d3b 9d6a d3ba 5140 543b
00000350: e055 e23a 0084 baba 1eb5 473c 66a0 183b
00000360: f960 14bb 4f7f cbba a52b 0480 b424 0cbc
00000370: 4332 763b 51d3 8bbb b3b4 0d3d 6811 35bb
00000380: bac1 3001 1b51 bc3b d67f 163b 7dda 34bb
00000390: c625 e9ba 9c21 9f3b 7eee 783b 1bd5 2b3b
000003a0: b9fe 2abd 24d9 b23a 78e7 0dbb 8e13 3b3b
000003b0: 03fd fa3b d6b2 d73a fbd5 a43b 040a 26bb
000003c0: 3b63 0e3b 99b2 953b 1cc4 d3bb 5565 a23b
000003d0: 7522 113b 8edd 1bba 9f66 f13b 6dec eb3a
000003e0: f3da 523a 9140 51bb 996c 0100 f98e 4cbc
000003f0: 46bf 573b bac8 0dbc e0f2 a23c 2f87 97bb
3.235255e-39 0.01887104 -0.0090263225 0.15996003 -0.08388469 0.016832976 -0.05646478 -0.08867789
-0.011392083 -0.018874453 -0.09964419 -0.0034842917 0.040382586 -0.13300341 -0.2733564 0.088436015
0.0032192012 0.11080853 0.11064951 0.07715531 0.037499674 0.09760973 -0.15219417 0.11736017
-0.03578135 -0.064348154 2.5526585e-38 0.037577443 0.07981546 -0.022709897 0.085576825 -0.061509274
-6.0720785e-38 -0.045524996 0.23633133 0.87996775 -1.1334112 0.24817844 0.20607649 -0.072710514
-0.14698566 0.20068763 -0.4779173 -0.37304947 0.12666823 -0.22771569 -0.056079015 0.22192438
0.12377322 0.23416834 0.018593729 -0.49960038 0.11943487 -0.2299666 -0.14148739 0.2793764
-0.532788 0.26940858 7.48068e-40 0.37180638 -0.3190301 0.02915769 0.052653663 -0.049512338
-3.2560448e-38 0.00622523 0.07356183 -0.04914693 1.5415523 0.1858168 0.26548266 -0.21258914
-0.072879225 -0.015938208 -0.82803476 -0.21857771 0.065168954 0.033079527 0.028815022 0.89766955
0.014780423 0.10993246 0.3747299 -0.5522496 -0.17237385 0.48883396 -0.22622469 -0.36398467
0.6250617 -0.51250315 -4.0534467e-38 -0.030129354 0.3425903 -0.41203433 0.15790114 -0.92278147
1.7869781e-37 0.06342215 0.015452839 -0.019464083 0.01867848 0.058282524 0.042583715 0.04260239
-0.09731719 -0.029094331 -0.005063968 0.027368935 0.009127684 0.043995444 0.03995376 -0.0070110043
-0.022091148 -0.022636011 -0.05394707 0.0024355047 0.01235086 0.04458328 -0.009712286 0.005297171
0.0042153657 -0.023694389 -3.015842e-38 0.0072683 -0.06046815 0.005032453 -0.018575763 -0.036756787
2.0275334e-38 -0.19579163 0.37131274 -0.020698415 0.019984538 -0.10791189 0.0556207 0.16964404
-0.22533467 -0.05230962 -0.039539047 0.03353047 0.24755669 0.14420201 0.04857062 -0.18959327
-0.09726207 -0.053436663 0.036960173 -0.043364663 0.020850392 0.039348856 0.048897777 0.041261006
-0.118213266 0.0041198474 1.460404e-38 -0.057565335 0.048313223 -0.16492632 0.23759711 -0.081359096
-1.5495434e-37 -0.035764623 -0.36593455 0.39433154 -0.03424604 0.030154187 -0.04274457 -0.010162143
-0.283034 0.06845755 0.028896231 0.037171062 0.21349075 -0.13392529 -0.8540195 0.3923806
0.038667265 0.17311728 -0.028117092 -0.23628011 -0.2768629 0.5916842 -0.036614556 -0.3175273
0.11005552 0.046875075 3.211443e-39 0.3802854 0.0947618 0.117737375 -0.017122973 0.0781848
-3.196393e-38 -0.0039291666 0.0014856409 -0.0008293969 0.0003095942 0.0011992912 -0.012906186 -0.009940631
-0.022263251 -0.0060943817 -0.0028408845 0.0018791083 0.0051070456 -0.0037303725 0.002152435 -0.00010784274
0.010884613 0.0028918576 -0.0016129796 0.0032386968 0.0017268024 -0.0014230013 0.012189178 0.0023288964
-0.0022640808 -0.0015525612 -3.82999e-40 -0.008553673 0.003756658 -0.0042671342 0.034596156 -0.0027628783
3.2465087e-38 0.005746973 0.002296438 -0.002759605 -0.0017787747 0.0048563015 0.003798395 0.002621955
-0.04174683 0.0013645035 -0.0021652859 0.002854559 0.007659556 0.0016456496 0.0050303913 -0.002533556
0.0021726626 0.0045684096 -0.006462587 0.0049559274 0.0022145782 -0.0005945795 0.0073669697 0.0017999538
0.000804349 -0.0031929354 1.30793e-40 -0.012485259 0.0032920404 -0.008653814 0.019891202 -0.0046242694

decoder.4.bias f4 [44]
00000000: d8be cf3c c170 2b3e 8c6f 0bbe 666f 54bb
00000010: 0004 5fbd eb22 8abe fec8 693c dceb ee3b
00000020: 00cd 8abd b42f 5ebe 3caf 713d a70d 42bc
00000030: bf09 23be 615d 7ebe 8435 5bba ceb3 4fbe
00000040: d87f 323d 9cdc c8bd 484a 0cbe 2d0a 2ebc
00000050: 47f3 b1bc f429 9bbc 7bb5 9abe 2c34 34be
00000060: 5f0c 57bc cc71 16bd bac9 4fbd 6021 c4bc
00000070: 2567 863e e846 9dbe 2eef 93be bd43 c43e
00000080: 249f a2be d62f f23d d335 203e 54bf b83e
00000090: dd5a bbbe 69ec 94be 1324 d1be fe9b 74bd
000000a0: 3119 073e 364f ff3d 3768 803c 3015 453c
0.025359556 0.16742231 -0.1361677 -0.0032415031 -0.054447174 -0.26979765 0.014269112 0.0072913
-0.06777382 -0.21697885 0.059005007 -0.011844075 -0.15921687 -0.24840309 -0.00083621615 -0.20283434
0.043578953 -0.09807703 -0.13700211 -0.010622543 -0.021722449 -0.018940903 -0.30216584 -0.17598027
-0.013125508 -0.03672962 -0.05072949 -0.023941696 0.26250568 -0.3071816 -0.28893417 0.3833293
-0.3176204 0.1182553 0.15645532 0.36083472 -0.3659276 -0.29086617 -0.40847835 -0.05971908
0.13193204 0.1246628 0.015674694 0.012028977
