src/saved_models/kdd_fnn_model_gpu_cumulative.pth (torch, 68156 bytes, 7 tensors)

network.0.weight f4 [128, 44]
0	0x3d8ff64c	0.07029399
1	0xbd05bc00	-0.032649994
2	0xbfff891c	-1.9963717
3	0xbeabf9cb	-0.33589014
4	0x3d6453ab	0.055743854
5	0x3c7520e9	0.01496146
6	0x8187a748	-4.9831205e-38
7	0xb91ff81f	-0.00015255854
8	0x3b98c86c	0.004662564
9	0x3bddc182	0.0067674527
10	0xb86a7a84	-5.590405e-05
11	0xbc6343e6	-0.013871169
12	0x3e0d3aff	0.13792036
13	0xbc14d846	-0.009084767
14	0x3a220885	0.0006181079
15	0x3dd3ac07	0.10335546
16	0xbb11fe27	-0.002227673
17	0x3b849bc7	0.0040468904
18	0xbc2ddeaf	-0.010612174
19	0x011e1c64	2.9040386e-38
20	0x01b16500	6.516446e-38
21	0x3a691f4b	0.00088929076
22	0x3d50dce3	0.050991904
23	0x3d55ff82	0.052245624
24	0xb93c704e	-0.00017970914
25	0xb94c3168	-0.00019473361
26	0xb8c2eaf4	-9.294404e-05
27	0x37908006	1.7225753e-05
28	0xbceb4101	-0.02871752
29	0x33c7667a	9.2853e-08
30	0xb8ee8047	-0.00011372618
31	0xbf99590b	-1.1980299
32	0xbe309603	-0.17244725
33	0xbb3d1990	-0.0028854348
34	0xbc10cc72	-0.008837806
35	0xbc01751f	-0.007901459
36	0xba193f6a	-0.0005845936
37	0x39574e82	0.00020533244
38	0x3ac13173	0.0014739468
39	0xbb19c5bc	-0.0023463806
40	0xbb6bdc5e	-0.0035989503
41	0xbfb937cf	-1.4470156
42	0x3eb915b9	0.36149386
43	0x00ddc51a	2.0366351e-38
44	0xbd95a7c7	-0.073073916
45	0x3b429792	0.0029692394
46	0x3de100e0	0.10986495
47	0x3de9ebc6	0.11421923
48	0x3bb32f17	0.00546826
49	0xbe19bbbe	-0.15013024
50	0xba962200	-0.0011454225
51	0xb237e381	-1.070373e-08
52	0x81599a5e	-3.9967358e-38
53	0xb97638b7	-0.00023481516
54	0x816fe1b6	-4.4059307e-38
55	0xbc3406fe	-0.010987995
56	0x3afcf515	0.0019299114
57	0x019dc9af	5.7962093e-38
58	0x017e23b7	4.6678056e-38
59	0x3aec36ee	0.0018021741
60	0xb833b7d6	-4.2848136e-05
61	0x01a05055	5.888999e-38
62	0x039e6f86	9.31201e-37
63	0x819acf9a	-5.686856e-38
64	0x00d61144	1.965899e-38
65	0x0085a2cd	1.2272523e-38
66	0xbdb975e3	-0.09055688
67	0xbdc18148	-0.094484866
68	0xbaa71813	-0.0012748264
69	0xbaab3e23	-0.0013064783
70	0xbb927fe4	-0.004470812
71	0xbb927f84	-0.0044707675
72	0x3ac834ff	0.0015274583
73	0x3b8e00ef	0.0043336074
74	0xba9638b4	-0.0011460991
75	0xbf13e1fc	-0.577667
76	0xbe27e206	-0.16394815
77	0xbbd8f57e	-0.006621062
78	0x3c8a8b82	0.016912226
79	0xbbfee0b9	-0.007778254
80	0xbafea8fd	-0.0019429025
81	0xbad735c3	-0.001641922
82	0xbab23259	-0.0013595327
83	0x3b6cc9cc	0.0036131022
84	0xbb8a23ef	-0.0042157094
85	0x3e8dfd29	0.27732208
86	0xbe8087b6	-0.2510354
87	0x009f1cd8	1.4612191e-38
88	0x3cffc22d	0.03122052
89	0xbc24794b	-0.010038684
90	0xbea7b4e4	-0.32755196
91	0xbd5eacab	-0.054363888
92	0xbf1cbd63	-0.6122648
93	0xbef70fce	-0.48254246
94	0x81111b64	-2.6651946e-38
95	0x81e55d00	-8.4254763e-38
96	0x81742534	-4.4842414e-38
97	0x0202f66a	9.621609e-38
98	0x808c42b8	-1.2880904e-38
99	0x8285fb23	-1.968674e-37
100	0x022118b4	1.1835501e-37
101	0x8117cf10	-2.788288e-38
102	0x80eddd6e	-2.1844447e-38
103	0x0148416c	3.6781136e-38
104	0x80d421bc	-1.9481227e-38
105	0x01bd502c	6.9542676e-38
106	0x015ba2da	4.0340788e-38
107	0x8138b9c6	-3.3928748e-38
108	0x8066eb84	-9.451708e-39
109	0x003d0495	5.603609e-39
110	0xbc2fb8d7	-0.010725222
111	0xbbae9e56	-0.0053289337
112	0x315d86c4	3.2236338e-09
113	0xb1a6d6a5	-4.855638e-09
114	0x3a8c93dd	0.0010725219
115	0x3a8c9413	0.0010725282
116	0xbb9111db	-0.0044271774
117	0xb7b63525	-2.1720838e-05
118	0x028d67c0	2.0777638e-37
119	0x3d999881	0.07499791
120	0xbc3c11f4	-0.01147889
121	0xba910cf8	-0.0011066487
122	0xb9dc9538	-0.00042072847
123	0xbbc64895	-0.006051133
124	0x96019dc3	-1.0470318e-25
125	0x30280b89	6.1134436e-10
126	0xb1aa5973	-4.9578204e-09
127	0x3a42d81e	0.00074327167
128	0x3a8c929c	0.0010724845
129	0xbe0f3cd6	-0.13988051
130	0x3c96e2b4	0.018418647
131	0x80c46286	-1.8035101e-38
132	0x3d003401	0.031299595
133	0xbd092acd	-0.033488084
134	0xbee6e316	-0.45095128
135	0x3d24136a	0.040057577
136	0xbdcc2a50	-0.09969008
137	0x3adf990d	0.0017059162
138	0x828e1fc9	-2.0883269e-37
139	0x02b635e1	2.6773421e-37
140	0xba294abd	-0.0006457975
141	0x3ab7dcba	0.0014027574
142	0x3acfff07	0.0015868851
143	0x3c52e88c	0.012872826
144	0x3dd49113	0.10379233
145	0x3c05b495	0.00816073
146	0x3c8388f3	0.016056513
147	0x3e0393f5	0.1284941
148	0xbd6b1cf7	-0.05740067
149	0x025d41fb	1.6255451e-37
150	0xba5a8185	-0.000833534
151	0x81b0f8d2	-6.500923e-38
152	0x8182ab14	-4.7999943e-38
153	0x3b6d9fd0	0.0036258586
154	0x3ed529f2	0.41633564
155	0x3ec00d85	0.37510315
156	0x3ba4f290	0.0050337985
157	0x3ba207c7	0.004944775
158	0x3b92ca6a	0.004479696
159	0x3ba75397	0.0051064
160	0xbc091b05	-0.008368258
161	0xbbf00260	-0.007324502
162	0x3b5bab5e	0.003351889
163	0xbecace8f	-0.39610717
164	0x3f3a560d	0.72787553
165	0x3bae8cea	0.005326857
166	0xb9db59ba	-0.00041837787
167	0xbb8a8b04	-0.0042279977
168	0x346aa450	2.1852725e-07
169	0x3b59372d	0.003314446
170	0x3afb6894	0.0019180947
171	0x3ade73c0	0.0016971752
172	0x3af174ec	0.0018421686
173	0xbed882b0	-0.42287207
174	0x3ffa418b	1.9551252
175	0x003a0296	5.327386e-39
176	0xbbbf1ea9	-0.0058325124
177	0xbe05005c	-0.12988418
178	0xbf6c45b1	-0.9229384
179	0xbdd1611d	-0.10223601
180	0x3c83fb80	0.016111135
181	0x3b8cd12c	0.004297396
182	0x820e86b6	-1.0471173e-37
183	0x3aaad956	0.0013034742
184	0xbc4fccf9	-0.012683147
185	0x3f595075	0.8488839
186	0xbae54824	-0.0017492813
187	0x3db4bce8	0.088250935
188	0xbf1b79f2	-0.6073295
189	0xbcc7fdb7	-0.024412973
190	0x3c0467de	0.0080814045
191	0xbf0f850f	-0.56062406
192	0xbdcc9a89	-0.09990413
193	0xba00bc36	-0.0004910858
194	0xbd05687a	-0.03257034
195	0x81a0d611	-5.908189e-38
196	0x292e7a01	3.8741583e-14
197	0x3af30ac6	0.001854264
198	0x3f27f23e	0.6560401
199	0x3f336355	0.70073444
200	0x3bc42e1a	0.005986941
201	0x3bc68d8a	0.0060593532
202	0x3ba4092c	0.005005976
203	0x3bc36e47	0.005964074
204	0xbd73a4f0	-0.05948347
205	0x3b8de5c4	0.0043303687
206	0x3bb09b15	0.005389581
207	0xbecb0b95	-0.39657274
208	0x3ef068ba	0.469549
209	0x3d63bb4e	0.05559855
210	0xbcf440df	-0.02981609
211	0x3ba0242c	0.0048871245
212	0xbba12fe4	-0.004919039
213	0x3c33738c	0.0109528415
214	0x3bcafdd0	0.0061948076
215	0xbcb30940	-0.021854997
216	0xbc1c7864	-0.009550188
217	0xbedc0f31	-0.4298034
218	0x40ed6d8a	7.4196215
219	0x81606ae4	-4.1218993e-38
220	0x3c9ba563	0.018999761
221	0x3c547071	0.012966261
222	0x3ce9d938	0.02854596
223	0x3cfc8c34	0.030828573
224	0xba364f17	-0.00069545343
225	0xbd674b66	-0.05646839
226	0xb996246c	-0.00028637366
227	0x33d4d513	9.910777e-08
228	0x012fe26f	3.2304882e-38
229	0xbc9bd411	-0.01902202
230	0x810f1329	-2.62787e-38
231	0xbbe9ad1c	-0.007131232
232	0x3ab69188	0.001392887
233	0x0287fd97	1.998202e-37
234	0x81259b02	-3.0416926e-38
235	0x3ab69140	0.0013928786
236	0x829bd846	-2.2899338e-37
237	0x01333610	3.2915896e-38
238	0x028c832f	2.0646447e-37
239	0x01196552	2.8174356e-38
240	0x8164040e	-4.1879895e-38
241	0xbba526af	-0.005040012
242	0x3c82d834	0.015972234
243	0x3c26e823	0.010187182
244	0xb9962e72	-0.00028644834
245	0xb9962df8	-0.0002864448
246	0xbb1c6417	-0.002386337
247	0xbb1c63f2	-0.0023863283
248	0x3b7beaee	0.003843959
249	0x3a841d39	0.001007951
250	0xb9598447	-0.0002074401
251	0xbd964abd	-0.07338474
252	0x3b5d1b79	0.0033738299
253	0x3b098732	0.0020985124
254	0x3b58a497	0.0033057088
255	0x3b8a5495	0.0042215087

network.0.bias f4 [128]
0	0xbcea565b	-0.02860563
1	0x3b2d5d6f	0.0026453396
2	0xbbab8a79	-0.005235013
3	0xbc4a1e9e	-0.012336401
4	0xbd3ade98	-0.04562244
5	0x3b9088b2	0.0044108266
6	0x3c1e2136	0.009651473
7	0x3ad64738	0.0016348129
8	0xbbb637b4	-0.0055608395
9	0xbb9f3784	-0.004858913
10	0x3d05a7c3	0.032630693
11	0x398b5e9b	0.00026582633
12	0x3cf5e312	0.030015502
13	0xbc0ff62c	-0.008786719
14	0x3c7816ad	0.015142125
15	0xbc434e3d	-0.011920509
16	0x3c71fd41	0.014769853
17	0x3b823466	0.0039735315
18	0x3ca8cbd7	0.02060501
19	0xbd3f47a4	-0.04669918
20	0x3c89cea5	0.016822169
21	0x37142c01	8.831733e-06
22	0xbb1ad202	-0.002362371
23	0xbba3e8c9	-0.0050021154
24	0x01578858	3.9587085e-38
25	0x3bcf6891	0.006329604
26	0x3d2e8152	0.0426038
27	0x3ba279ce	0.004958368
28	0xbc20c6f0	-0.009813055
29	0x3c0264bc	0.007958587
30	0x3d80500e	0.06265269
31	0xbc34dcbb	-0.011038954
32	0x823b7ca6	-1.3774363e-37
33	0xbada7b0c	-0.0016668751
34	0xbb8e859e	-0.0043494245
35	0xbcd9af87	-0.026572956
36	0x3cebdf6f	0.028793065
37	0xbc510883	-0.012758377
38	0x3a678644	0.0008831958
39	0xbb7be3bc	-0.00384353
40	0xbabef3e6	-0.0014568537
41	0x3c27d099	0.010242605
42	0x3d0e4c3d	0.034740675
43	0xb7541f3e	-1.2643459e-05
44	0x012253a0	2.98147e-38
45	0x3cebe155	0.02879397
46	0xbb38dcd8	-0.0028207805
47	0x3ae5cc6d	0.0017532237
48	0xbb111f1e	-0.0022143791
49	0x3d0d6c7b	0.034527283
50	0x3cc813ad	0.024423445
51	0xbc702726	-0.014657771
52	0xbc2912a3	-0.010319385
53	0x025977d8	1.5977036e-37
54	0x3ba36aae	0.0049870824
55	0x01d188b4	7.6970634e-38
56	0xbc382aad	-0.011240643
57	0xbcdfc8d1	-0.027317436
58	0xba9d7128	-0.0012011873
59	0x3d0215ba	0.031759
60	0xbc597d3d	-0.013274488
61	0x3d44fbf8	0.04809186
62	0x3c392ecb	0.01130266
63	0x3d45e0f2	0.048310228
64	0x3cdd651b	0.02702575
65	0x3cf4bab1	0.029874178
66	0x3ce06833	0.027393436
67	0x3bac9f3e	0.0052680066
68	0x3b8eeafa	0.0043615075
69	0x1940b22a	9.962147e-24
70	0x3c86c479	0.016451107
71	0x82ad35e3	-2.5450995e-37
72	0x00ed866c	2.1813234e-38
73	0x3c8099fd	0.015698427
74	0x3d01f414	0.03172691
75	0x3e43c64d	0.19118614
76	0x01a71ffc	6.1392007e-38
77	0xbc1f9a9b	-0.009741451
78	0x81d3be86	-7.7782546e-38
79	0x3c9e375f	0.019313512
80	0xbb5ac938	-0.0033384096
81	0xbc9349fb	-0.017979613
82	0xbc8757b7	-0.016521318
83	0x3c16ddc7	0.009208149
84	0x3c4fea31	0.012690113
85	0x3d2cacc5	0.042156953
86	0x3cbe4c5d	0.023229772
87	0x3d45b281	0.048265938
88	0x3d5cb941	0.05388761
89	0xbca60a7c	-0.020268671
90	0x3cdb45f0	0.026766747
91	0x3c69faef	0.014281019
92	0x3bb10708	0.0054024495
93	0xbcb4e816	-0.022083323
94	0x3c9ade10	0.018904716
95	0xbb635cb9	-0.0034692718
96	0x3d1533c9	0.03642634
97	0xbd8b6413	-0.06806197
98	0x3bbee402	0.0058255205
99	0x02165b5e	1.1046481e-37
100	0xbb7ee91a	-0.0038896264
101	0xbcd3a0b3	-0.025833463
102	0x81d91f17	-7.975782e-38
103	0xbc134a15	-0.0089898305
104	0x3d672563	0.05643214
105	0x3c2c5d06	0.010520225
106	0xb9220158	-0.00015450025
107	0xbba2be69	-0.0049665463
108	0x3c2a4186	0.010391599
109	0xbb8d6017	-0.0043144333
110	0xbad387ae	-0.0016138458
111	0x81836e70	-4.828027e-38
112	0x818bb66b	-5.1322293e-38
113	0x0234ff43	1.3297568e-37
114	0xbc767e76	-0.015044799
115	0xbc932e15	-0.01796631
116	0x3c1e4867	0.009660817
117	0x3cac233c	0.021012895
118	0x3d52fbf9	0.05150983
119	0xbc4106a6	-0.01178137
120	0x3ba8313f	0.0051328237
121	0x3dd8de1c	0.10589239
122	0x81aaaa57	-6.2692563e-38
123	0xbae96c82	-0.0017808827
124	0x3d51b58c	0.051198527
125	0x3d18b72c	0.03728406
126	0xbc9fc00b	-0.019500753
127	0x3c2a4e8e	0.010394705

network.3.weight f4 [64, 128]
0	0xbc0cc505	-0.008591895
1	0x3d5aa67f	0.05338144
2	0xbbfcf313	-0.0077194064
3	0x3d8dbdaf	0.06920945
4	0xbd35c593	-0.044377875
5	0x3ce4441b	0.027864506
6	0x3db69ee8	0.08917028
7	0x3cec4eeb	0.028846225
8	0xbd36b417	-0.04460534
9	0xbe2d1326	-0.16901836
10	0x3e1cc16f	0.15308164
11	0xbbf4ff89	-0.007476751
12	0x3da7ca9e	0.08192943
13	0x3d49917a	0.049211003
14	0x3cb77368	0.022393897
15	0x3d814cc4	0.0631347
16	0x3d5d999b	0.054101568
17	0x3c453ce8	0.012038447
18	0x3d46d6b7	0.04854461
19	0xbab8c7b3	-0.0014097601
20	0x3d0fdf44	0.035125032
21	0x389a56fa	7.359493e-05
22	0xbcf5ebd1	-0.030019673
23	0xbd60c6cf	-0.0548771
24	0x8138d4ce	-3.3948142e-38
25	0xbbcf72ed	-0.006330839
26	0x3c9dd2d2	0.019265566
27	0xbe080798	-0.13284147
28	0xbd01c428	-0.03168121
29	0x3d2a7010	0.041610777
30	0xbe5b14f3	-0.2139471
31	0x3d98a153	0.07452645
32	0x8125ef19	-3.0477258e-38
33	0x3b641bad	0.0034806535
34	0x3cb5941c	0.02216535
35	0x3ced5848	0.02897276
36	0x3d8ec31f	0.0697081
37	0xbd61a982	-0.055093296
38	0x3cfd4918	0.030918643
39	0xbd5a8fe7	-0.053359892
40	0xbcdf97b5	-0.02729402
41	0x3ce217f7	0.027599318
42	0xbc74fee8	-0.0149533525
43	0xb8028181	-3.1115025e-05
44	0x02a59c4c	2.433428e-37
45	0xbd7a528d	-0.061113883
46	0x3cd00c34	0.025396444
47	0xbdacf2f6	-0.084447786
48	0xbd9f7f62	-0.07787968
49	0xbcad79cf	-0.021176247
50	0xbda9783e	-0.082748875
51	0xbe06c9f6	-0.1316298
52	0xbdd09f8b	-0.101866804
53	0x82197052	-1.1272899e-37
54	0xbc26220a	-0.0101399515
55	0x1ca4ffc6	1.0918726e-21
56	0xbd96bbd5	-0.07360045
57	0x3c8f1710	0.017467052
58	0x3c69554a	0.014241526
59	0x3cda8baa	0.026677925
60	0xbd253ec9	-0.04034308
61	0x3e587102	0.21136859
62	0xbb32c707	-0.0027279274
63	0xbd558753	-0.05213101
64	0x3c051d37	0.008124641
65	0x3d5092c7	0.050921228
66	0x3cb01a76	0.021496993
67	0xbcddb661	-0.027064504
68	0xbe1692e7	-0.14704476
69	0x1c3d95b3	6.2728336e-22
70	0xbbd7c07d	-0.0065842257
71	0x02a8b911	2.4791604e-37
72	0x80d5c74a	-1.9632452e-38
73	0xbc6f4554	-0.014603931
74	0x3d829a19	0.06377048
75	0xbc509aad	-0.01273219
76	0x02028fa3	9.592113e-38
77	0x3ccc8965	0.024967859
78	0x01baa25e	6.8558595e-38
79	0x3dccf198	0.10007018
80	0x3d1fa2e9	0.038973723
81	0xbd048422	-0.032352574
82	0x3d197f52	0.037474938
83	0x3c3a6200	0.011375904
84	0xbce18688	-0.02752997
85	0x3e0eeb14	0.13956863
86	0x3d998e31	0.07497824
87	0xbda5cacd	-0.08095322
88	0xbd0a123e	-0.033708803
89	0xbda70cff	-0.08156776
90	0xbc9d542b	-0.019205173
91	0xbc589b83	-0.013220671
92	0x3d8eff68	0.069823086
93	0xbde7bf74	-0.11315814
94	0xbdd10622	-0.10206248
95	0x3d439121	0.047745828
96	0x3dfb45f0	0.12269199
97	0xbd82a911	-0.06379903
98	0x3d995e9a	0.07488747
99	0x349b4167	2.8918586e-07
100	0xbbdba339	-0.0067028073
101	0xbcf2bf6c	-0.029632293
102	0x82964633	-2.2080811e-37
103	0xbbb26615	-0.005444298
104	0xbdfc576b	-0.12321361
105	0xbd3098ae	-0.043114357
106	0xbda52ccd	-0.08065186
107	0x3bfe3283	0.0077574863
108	0xbd7cbbaf	-0.061702427
109	0x3c9c91ba	0.019112457
110	0x3c37eddb	0.011226143
111	0x819b1f66	-5.698306e-38
112	0x01945730	5.449172e-38
113	0x0262c1c6	1.6659468e-37
114	0xbd48b85b	-0.04900394
115	0x3d545476	0.05183836
116	0x3d29a615	0.041418154
117	0xbda59a62	-0.08086087
118	0x3dbd298f	0.09236442
119	0xbcfca4bf	-0.030840276
120	0x3dfcd700	0.123456955
121	0xbd832065	-0.06402663
122	0xbb01959f	-0.001977302
123	0xbc6fc88d	-0.014635217
124	0x3d1e57a3	0.038657796
125	0x3db4fc6f	0.088372104
126	0xbd23fed9	-0.040037964
127	0x3dc8468c	0.09779081
128	0xbe33b0ab	-0.17547862
129	0x3d0a7f94	0.033813074
130	0x3b81318d	0.0039426745
131	0xbe252b1c	-0.16129726
132	0xbda1ca9d	-0.078999735
133	0x3ce8ab18	0.028401896
134	0xbd8db438	-0.069191396
135	0xbd2c95da	-0.042135097
136	0xbd9e2ca6	-0.0772336
137	0xbc8c4d51	-0.017126711
138	0x3dfe73a7	0.12424403
139	0xbcb7d9aa	-0.022442658
140	0xbc3e31e0	-0.011608571
141	0xbe0caefe	-0.13738629
142	0xbd36ff32	-0.044676967
143	0xb9cdedbd	-0.00039277776
144	0xbd180393	-0.037112784
145	0xbcd098b6	-0.025463443
146	0x3d953335	0.072851576
147	0xbe00ad55	-0.12566121
148	0x3acf661e	0.001582328
149	0x391c0f9e	0.00014883137
150	0xbc16c12e	-0.009201331
151	0xbdc8860a	-0.09791191
152	0x00f7633c	2.2718966e-38
153	0x3e11649d	0.14198537
154	0x3e18ba46	0.14914808
155	0x3e14ed44	0.14543635
156	0xbc3c1ff4	-0.011482228
157	0xbd83bd8f	-0.0643264
158	0x3e129809	0.1431581
159	0x3c308edd	0.010776249
160	0x8083adeb	-1.209284e-38
161	0x3d2f62ee	0.042818956
162	0x3c460e2e	0.012088342
163	0xbe32bd5c	-0.17455047
164	0xbc66d49c	-0.014088776
165	0x3dfefe7e	0.12450884
166	0x3cad7004	0.021171577
167	0xbd0014fa	-0.031270005
168	0xbd4db2bd	-0.050219286
169	0x3d7d2d47	0.061810758
170	0x3d6bcd4e	0.05756884
171	0xbbad051a	-0.005280149
172	0x009f88d4	1.4650929e-38
173	0x3da809db	0.08205005
174	0x3c8c0044	0.01708997
175	0xbbd4612a	-0.0064813094
176	0xbd8438ea	-0.06456168
177	0x3cc8cdfd	0.024512285
178	0xbc7bc274	-0.015366185
179	0xbd170f9b	-0.036880117
180	0xbe1c5977	-0.15268503
181	0xbbd4eb83	-0.0064978017
182	0xbcc56ad5	-0.024098793
183	0xb6e7067d	-6.885092e-06
184	0xbdab1290	-0.0835315
185	0xbcf19240	-0.029488683
186	0x3e1518c2	0.14560226
187	0xbce89416	-0.028390925
188	0x3bfa2878	0.007634219
189	0x3d34187d	0.043968666
190	0xbd13cf13	-0.036086153
191	0x3d880429	0.066414185
192	0x3755017c	1.2696135e-05
193	0x3ecd7b1f	0.40132996
194	0xbce53e5e	-0.02798384
195	0x3cd171b7	0.025566919
196	0xbc159a0f	-0.009130969
197	0x2628f398	5.861684e-16
198	0x3da39fcd	0.07989464
199	0x82acf41c	-2.541324e-37
200	0x001341cd	1.76848e-39
201	0xbd033830	-0.032036006
202	0xbcb04092	-0.021515165
203	0x3daa90e4	0.08328417
204	0x02280605	1.2344418e-37
205	0xbca36b6b	-0.019948682
206	0x81c545d1	-7.246655e-38
207	0x3c7f97c3	0.015600148
208	0xbd56abf3	-0.052410077
209	0xbe28a749	-0.16470064
210	0xbde50e1f	-0.11184334
211	0x3d93dcb6	0.07219832
212	0xbd93f30d	-0.07224093
213	0x3e58fb96	0.21189722
214	0x3e99ef1a	0.30065233
215	0x3e6681b4	0.22510415
216	0xbd7d6c40	-0.061870813
217	0xbdb342a3	-0.08752944
218	0x3e93b1b9	0.2884653
219	0xbd426f56	-0.04746946
220	0x3d888cae	0.066674575
221	0xbdb12336	-0.08649294
222	0xbc32bb91	-0.010908977
223	0xbb6912ce	-0.0035564187
224	0x3c770f6f	0.015079363
225	0x3e11ded0	0.14245152
226	0xbd2f38e4	-0.042778865
227	0x3557db94	8.041327e-07
228	0x3df005b3	0.11719837
229	0xbe7a0ce3	-0.24418978
230	0x02953b56	2.192764e-37
231	0xbb8a744f	-0.004225291
232	0x3ef8689e	0.48517317
233	0x3c900e52	0.017584953
234	0x3ddd3b5f	0.1080234
235	0xbd8d4b14	-0.06899086
236	0x3d5bd2c0	0.053667784
237	0xbdf5cd97	-0.12002104
238	0x3d00a823	0.031410348
239	0x825ec7ac	-1.6367287e-37
240	0x818bc172	-5.1338116e-38
241	0xb920f4c0	-0.00015349966
242	0xbcf8a87e	-0.03035378
243	0x3dc3f22e	0.095676765
244	0x3d3440f4	0.044007257
245	0x3df94f15	0.12173287
246	0x3c8efa06	0.017453205
247	0xbda2a27c	-0.07941148
248	0xbd63fba0	-0.05565989
249	0x3ec8250f	0.39090773
250	0xbd149ec5	-0.036284227
251	0x3e60f6f8	0.21969211
252	0x3d72a302	0.059237488
253	0x3ddd1047	0.1079412
254	0xbd9550ae	-0.07290779
255	0x3ce5fae1	0.02807373

network.3.bias f4 [64]
0	0x3d17d6a2	0.037069924
1	0xbc87c6fb	-0.016574373
2	0xbc317a47	-0.010832376
3	0xbd42ee0d	-0.047590304
4	0x3d6e9eb4	0.05825682
5	0x3ce629af	0.028096048
6	0x3ada5d2e	0.001665985
7	0x3e0f4e7e	0.13994786
8	0x3d5da9bc	0.05411695
9	0x3d64ad9f	0.05582964
10	0xbb8f1168	-0.0043660887
11	0x3d4ea75b	0.05045257
12	0x3c9ffe73	0.01953051
13	0xbd1700f8	-0.03686616
14	0x3c701382	0.0146530885
15	0x3d3d62a8	0.046236664
16	0x3d12a68c	0.035803363
17	0xbd082431	-0.03323764
18	0xbc95f4d9	-0.018305229
19	0x3d20a481	0.039219383
20	0x3da19839	0.07890362
21	0xbcf78ec2	-0.03021944
22	0x3d711f68	0.058867842
23	0xbca58a43	-0.02020753
24	0xbc1e3251	-0.009655551
25	0x3d29a101	0.04141331
26	0x3d010339	0.031497214
27	0x3d0dd9f0	0.03463167
28	0x3d4ba45d	0.049717296
29	0xbcc58a91	-0.024113925
30	0xbd7f0fb8	-0.06227085
31	0x3d4a4e74	0.049391225
32	0x3d1deb7f	0.038554665
33	0xbcc9e82a	-0.024646837
34	0xbc1c5dc1	-0.009543837
35	0x3cb83a6b	0.022488793
36	0x3ce8527f	0.02835965
37	0xbd065dc5	-0.03280427
38	0x3cda8551	0.026674898
39	0x3d44cfdd	0.048049796
40	0x3d73b00e	0.05949407
41	0x3cb5e1b4	0.02220235
42	0x3cb2efad	0.021842802
43	0x3d69ac90	0.057049334
44	0x3c75b0bd	0.014995751
45	0xbd82e5b6	-0.0639147
46	0x3d7870a8	0.060654312
47	0xbcb794d8	-0.022409841
48	0x3c834eca	0.01602878
49	0x3d9c8bb6	0.07643835
50	0x3d0d7d48	0.034543306
51	0x3d1e23ad	0.03860824
52	0x3cbdfb6d	0.023191178
53	0x3d83296c	0.06404385
54	0xbc5aa996	-0.0133460965
55	0x3ba4900a	0.0050220536
56	0x3d471f5d	0.048613895
57	0x3d4002b3	0.046877574
58	0xbc603b4f	-0.013686015
59	0xbc09aeba	-0.008403474
60	0x3cd216c7	0.025645627
61	0x3d3918f0	0.045189798
62	0x3da463ae	0.08026825
63	0x3d0f72a1	0.035021428

network.6.weight f4 [32, 64]
0	0xbb39a812	-0.0028328937
1	0xbc2ed8b7	-0.010671786
2	0xbc9a84b0	-0.018862098
3	0xbb65b40a	-0.0035049939
4	0xbcdf61ae	-0.027268257
5	0xbb2c8e4d	-0.0026329935
6	0xbb8d70db	-0.004316432
7	0x3b0b5437	0.0021259913
8	0x3cb0f036	0.021598917
9	0xbc6dd635	-0.014516403
10	0xbc1f06ad	-0.0097061815
11	0xbd6316b0	-0.05544156
12	0xbd89520e	-0.06705104
13	0x3b49cc91	0.0030792097
14	0xbb13b14b	-0.0022536095
15	0xbbd104e7	-0.0063787582
16	0xbcfc2b07	-0.030782236
17	0xbcd004d3	-0.025392925
18	0xbad52696	-0.001626211
19	0x3ddb459e	0.10706638
20	0xbb8cf6dc	-0.004301889
21	0xbcdf982f	-0.027294246
22	0xbb4307a1	-0.0029759186
23	0x3b889aa6	0.004168826
24	0xbc2b97df	-0.010473221
25	0x3d6bab72	0.05753655
26	0xbb70ca7b	-0.0036741782
27	0xbbb34095	-0.0054703453
28	0xbb8eb6d2	-0.00435529
29	0x3b284c15	0.0025680114
30	0xba83776c	-0.0010030097
31	0x3bcfe12c	0.0063439813
32	0xbbd5c93d	-0.0065242336
33	0x3b1a42e4	0.0023538405
34	0xbc3fdab1	-0.011709855
35	0xbbb02531	-0.0053755273
36	0x3da20714	0.07911506
37	0xbca1e063	-0.019760316
38	0xbcc912a7	-0.024545027
39	0xbbcdb25c	-0.0062773656
40	0xbc4a264f	-0.012338235
41	0x3b1ae154	0.0023632841
42	0xbc680cc4	-0.0141632
43	0x3df1789c	0.117905825
44	0xbbe7d2e3	-0.0070747
45	0xbb671641	-0.0035261067
46	0xbd3de7ec	-0.046363756
47	0xbd987ad1	-0.074453
48	0xbcb210a1	-0.021736445
49	0xbb683773	-0.003543344
50	0x3db37c5f	0.08763956
51	0xbd7dcbc9	-0.061961923
52	0xbcb7ef76	-0.022453051
53	0xbb2294b6	-0.0024807877
54	0xbc497703	-0.012296441
55	0xbc0e24bb	-0.008675749
56	0xbca8740f	-0.020563154
57	0xbbfed651	-0.0077770134
58	0xbc55ae05	-0.013041978
59	0x3c0a1758	0.008428417
60	0xbb5bcf26	-0.0033540218
61	0xbb82b2f7	-0.0039886194
62	0xbb9ea8ed	-0.004841915
63	0xbc9b04d7	-0.018923206
64	0x01999fe6	5.6432767e-38
65	0x01d881a8	7.9531916e-38
66	0xbcae0d6c	-0.021246634
67	0x0addf69a	2.1374287e-32
68	0xbc0d988e	-0.008642329
69	0x8019a31c	-2.3544e-39
70	0x0290c3bb	2.1271242e-37
71	0x374d8c56	1.2251627e-05
72	0xb98359e1	-0.00025053232
73	0xbbd54800	-0.006508827
74	0xbc25e5fe	-0.010125635
75	0xbc107f0b	-0.008819352
76	0xbb14b323	-0.0022689782
77	0x00d4e952	1.9552825e-38
78	0x860817ec	-2.5596332e-35
79	0x9f039ae7	-2.786846e-20
80	0xb99edb87	-0.0003029967
81	0xbbe66672	-0.0070312554
82	0xba1a40aa	-0.00058842695
83	0xb9427c85	-0.00018547669
84	0x0288a6a0	2.0079042e-37
85	0xbc98fb00	-0.018674374
86	0x3c0213d5	0.007939299
87	0xbc266d16	-0.010157844
88	0xbb81d6b3	-0.0039623617
89	0x00354b28	4.894242e-39
90	0x8015d897	-2.006243e-39
91	0x81fae53c	-9.216443e-38
92	0x021b1c68	1.1395754e-37
93	0x822466cc	-1.2078318e-37
94	0x8e05e4f7	-1.6503758e-30
95	0xba45ad7f	-0.00075408065
96	0x98006970	-1.6596845e-24
97	0xa36b6670	-1.27610675e-17
98	0xbc3e4a8d	-0.011614454
99	0x81f9548c	-9.1589473e-38
100	0xbbb719f3	-0.00558781
101	0xbc09d008	-0.008411415
102	0xbc8d2e31	-0.01723394
103	0xad1a5492	-8.772665e-12
104	0x8231f639	-1.3074569e-37
105	0x022f4c62	1.287889e-37
106	0x81e69f5c	-8.4717326e-38
107	0xb4a18ecc	-3.0092485e-07
108	0x0284958f	1.94815e-37
109	0x95e7bdec	-9.35998e-26
110	0xb29f8a12	-1.8572823e-08
111	0xbc07d108	-0.008289583
112	0xba141b9d	-0.00056498667
113	0xaa072929	-1.2004689e-13
114	0xbb9ead1c	-0.0048424136
115	0xba9b0a54	-0.001182864
116	0x384f9b2d	4.9497165e-05
117	0x01f74c1a	9.084267e-38
118	0x3c88b600	0.016688347
119	0x01ac2bd0	6.324569e-38
120	0xbafeb4f2	-0.0019432588
121	0x019022bc	5.2947087e-38
122	0xbbb25ebd	-0.0054434226
123	0xbc216e51	-0.009852962
124	0x01c8eeae	7.3810885e-38
125	0xabc17f25	-1.3748764e-12
126	0x8204ec06	-9.765564e-38
127	0xb780b717	-1.5344047e-05
128	0xb74cb8bf	-1.2202362e-05
129	0xbaf8931d	-0.0018964742
130	0xbb470528	-0.0030368064
131	0x374765be	1.1885013e-05
132	0xbb82c59f	-0.0039908434
133	0xb5330524	-6.6690177e-07
134	0xbaf188ca	-0.0018427607
135	0xbb02f85f	-0.0019984466
136	0xbbad221f	-0.0052836086
137	0xbbf672f1	-0.0075210263
138	0xbb6d1f07	-0.0036181824
139	0xbbc2ab41	-0.005940825
140	0x3bf68c9c	0.007524086
141	0xb3810def	-6.009565e-08
142	0xbba99fa6	-0.0051765023
143	0xbbde5fa6	-0.0067863045
144	0xbc1aa842	-0.00943953
145	0xbc0b0961	-0.008486123
146	0xba18bc77	-0.00058264233
147	0xb91f1445	-0.00015170973
148	0xbae02af5	-0.0017102646
149	0xbb2d41c3	-0.0026436902
150	0x37f9082e	2.9686922e-05
151	0xbaadaedc	-0.0013250965
152	0xbaa28b5f	-0.0012401155
153	0xbb3195d1	-0.0027097354
154	0xbb86c1b5	-0.004112447
155	0xb9d8fdb1	-0.00041387745
156	0xb6e6004c	-6.8545687e-06
157	0xb429216f	-1.5751515e-07
158	0xaf8f9144	-2.6114766e-10
159	0xbb48ea70	-0.0030657314
160	0xbac4b6dd	-0.0015008111
161	0xba78a917	-0.00094856456
162	0xbb1b4ea9	-0.0023698008
163	0xb9a37f28	-0.00031184522
164	0xbb64f85b	-0.003493807
165	0xbbff0e28	-0.00778367
166	0xbb694313	-0.0035592958
167	0xbb1e8cc7	-0.0024192797
168	0xbb8522ca	-0.004062985
169	0xba3ab2be	-0.00071219716
170	0xba009958	-0.00049056625
171	0xbadcf486	-0.0016857542
172	0xbb42160c	-0.0029615192
173	0x3787fca3	1.6210897e-05
174	0xbaef85f4	-0.0018274174
175	0xbbe5d74a	-0.00701419
176	0xbba79358	-0.0051140003
177	0xb8bc5b2e	-8.981522e-05
178	0x3d4edca8	0.050503403
179	0xbbdc6d88	-0.0067269243
180	0xbae3ff72	-0.0017394854
181	0xbb41635b	-0.0029508683
182	0xba857495	-0.0010181839
183	0xba826679	-0.0009948752
184	0xbbeb931a	-0.0071891667
185	0xba3c962c	-0.0007194008
186	0xbb29e7bf	-0.0025925485
187	0xbb5dee49	-0.0033863953
188	0x3b28b7fd	0.0025744431
189	0xbaab8bc2	-0.0013087916
190	0xba4ca00a	-0.000780583
191	0xbbb33815	-0.005469332
192	0xbb8eb5a3	-0.004355149
193	0xbca58d78	-0.02020906
194	0xbce2848c	-0.027651094
195	0xbc2c1277	-0.010502449
196	0xbc73ded4	-0.014884669
197	0xbbb87882	-0.0056296
198	0x3b9ab4c1	0.0047212546
199	0xbbffd230	-0.0078070387
200	0xbc4dafae	-0.012554092
201	0xbd2fb143	-0.04289366
202	0xbd084a0a	-0.033273734
203	0xbd045116	-0.032303892
204	0xbd4e8355	-0.050418217
205	0xbaa775a2	-0.0012776146
206	0xbbd4f382	-0.006498755
207	0xbd017b28	-0.03161159
208	0xbd14c7cc	-0.036323354
209	0xbcf0d388	-0.029397741
210	0xbc427b03	-0.011870149
211	0xbadad072	-0.0016694202
212	0x3d6e0714	0.05811222
213	0xbce9a53b	-0.02852117
214	0xbb10e185	-0.0022107076
215	0xbc87f3c4	-0.016595729
216	0xbc439627	-0.011937655
217	0xbcc9ce6a	-0.024634559
218	0xbbe86849	-0.00709251
219	0xbc1b19f1	-0.009466634
220	0xbc2b518b	-0.010456453
221	0xbb3ade68	-0.0028513912
222	0xbb70f1cd	-0.0036765218
223	0x3a0f4887	0.00054658245
224	0xbc4f15c0	-0.012639463
225	0xbc8000d6	-0.015625399
226	0x3d46cfaf	0.048537906
227	0xbbab173c	-0.0052212756
228	0xbd095dba	-0.03353665
229	0xbcb104bf	-0.021608708
230	0xbcd654a8	-0.026163414
231	0x3a054de6	0.0005085155
232	0xbc106594	-0.008813281
233	0xbc0e2b3a	-0.008677298
234	0xbc116a9e	-0.008875517
235	0x3b073de1	0.0020636248
236	0xbc29b444	-0.01035792
237	0xbc17c5b3	-0.009263444
238	0xbc3f90c6	-0.0116922315
239	0xbccadcf6	-0.024763566
240	0xbd035ee1	-0.032072905
241	0xbc34d53c	-0.011037167
242	0xbc658f23	-0.014011177
243	0xbd30e2a6	-0.0431849
244	0xbc151605	-0.009099488
245	0xbc141e80	-0.009040475
246	0xbcec8c34	-0.028875448
247	0xbc9122d7	-0.017716808
248	0xbcead119	-0.028664159
249	0xbc2f642c	-0.010705035
250	0xbbbd815e	-0.005783244
251	0xbcb77662	-0.022395317
252	0xbc207ee9	-0.009795883
253	0xbc0978e0	-0.008390635
254	0xbc18d978	-0.009329192
255	0x3ded9e6d	0.11602483

network.6.bias f4 [32]
0	0x3c8bc9af	0.017063944
1	0x3c526336	0.012841037
2	0x3c34ef32	0.011043357
3	0x3cbf94e2	0.023386423
4	0x3f318fc1	0.69359976
5	0xbdb72a38	-0.089435995
6	0x3d8bfa1e	0.068348154
7	0x3ce54357	0.027986212
8	0x3cad029e	0.021119412
9	0x3da45eb8	0.08025879
10	0xbe6a6fe4	-0.22894245
11	0x3f597688	0.8494649
12	0x3db93605	0.090435065
13	0xbb31270b	-0.0027031328
14	0x3c28e774	0.010309089
15	0x3dbc5630	0.091961265
16	0x3dc222ee	0.094793186
17	0xbbb12e8e	-0.005407161
18	0x3ec9785e	0.39349645
19	0x3c92879e	0.017886933
20	0x3dff194a	0.124559954
21	0x3bf88c68	0.007585097
22	0x3e08d932	0.13364103
23	0x3e755b8b	0.23960702
24	0xbaa60c90	-0.0012668539
25	0x3ca969e3	0.020680374
26	0x3c885b65	0.016645143
27	0x3e5d6800	0.21621704
28	0xbbe338ec	-0.006934276
29	0xbc0ee807	-0.008722312
30	0x3be3d06e	0.006952337
31	0x3cc494e1	0.023996772

network.8.weight f4 [1, 32]
0	0x3bfaacae	0.0076499796
1	0x3b8a648d	0.0042234124
2	0x3b852229	0.00406291
3	0x3c0da073	0.008644211
4	0x3ed248f8	0.41071296
5	0x3c41cdfc	0.011828896
6	0x3c9e214c	0.019302987
7	0x3c38c031	0.011276291
8	0x3c13059c	0.008973505
9	0x3d086392	0.033298083
10	0x3dc31268	0.09524995
11	0x3e99f5e1	0.30070403
12	0x3d222d77	0.03959414
13	0x3cc40eeb	0.023932895
14	0x3b4f8424	0.0031664455
15	0x3d2941f8	0.04132268
16	0x3d888e0a	0.06667717
17	0x3cee5672	0.029093955
18	0x3e4c50f1	0.19952752
19	0xbb069c27	-0.0020539851
20	0x3cd0e291	0.02549866
21	0x3b14cd3d	0.002270534
22	0x3d827cce	0.06371461
23	0x3d91135f	0.07083773
24	0x3a0079bf	0.0004900954
25	0x3c354e63	0.011066052
26	0x3c74b1fd	0.014935014
27	0xbc68fb71	-0.014220105
28	0x3d89a6b5	0.0672125
29	0x3db37d9e	0.08764194
30	0x3b046075	0.0020199094
31	0x3cd59f94	0.02607707
